codes/checkpoints/best_lstm_cnn_model.pth (torch, 364105 bytes, 39 tensors)

encoder.encoder.0.0.weight f4 [8, 1, 3, 3]
-0.32016495 0.00472032 -0.5310457 0.0628022 -0.063703865 -0.37792906 0.09963339 -0.14948517
-0.5303419 0.38315177 0.22755297 0.35096702 -0.09922303 0.35152498 0.077039495 0.116053976
-0.1094694 0.02227078 -0.11043983 -0.14254917 -0.22047319 0.0753804 -0.2607972 -0.14367002
0.3841697 -0.12350297 -0.008566872 -0.15761358 -0.3825398 -0.12873246 -0.218636 -0.39788395
-0.13620152 -0.20416866 -0.4769205 -0.19126855 0.004191824 -0.008979704 0.001058021 0.002576825
-0.018435057 0.055481885 -0.049060304 0.8416841 0.56271815 -1.8778319e-05 0.005747714 -0.012154393
0.7252694 0.51940334 -0.00087427226 -0.0091161085 0.006410678 -0.00924252 0.3220653 -0.3103926
-0.018314492 -0.2932808 0.034851525 -0.0627046 0.020229304 -0.24535523 0.23536173 -0.034913603
0.16527617 0.23666629 -0.00910701 -0.27480868 0.17476833 -0.22678784 -0.09896119 -0.18394294
00000000: a9ec a3be eaac 9a3b 9cf2 07bf 719e 803d
00000010: 2c77 82bd eb7f c1be 970c cc3d a412 19be
00000020: 7dc4 07bf 782c c43e a503 693e f3b1 b33e
00000030: 7235 cbbd 15fb b33e e2c6 9d3d b5ad ed3d
00000040: 7e31 e0bd 3671 b63c 472e e2bd 69f8 11be
00000050: b9c3 61be 0a61 9a3d 3687 85be 3c1e 13be
00000060: e4b1 c43e 20ef fcbd 115c 0cbc 7465 21be
00000070: 42dc c3be 71d2 03be 1ee2 5fbe 72b7 cbbe
00000080: 6978 0bbe 9711 51be ec2e f4be e7db 43be
00000090: 915b 893b 9c1f 13bc 4bad 8a3a f3df 283b
000000a0: 1e05 97bc f940 633d 75f3 48bd 9c78 573f
000000b0: 4c0e 103f 2286 9db7 5257 bc3b 3823 47bc
000000c0: 41ab 393f 9ef7 043f 6b2f 65ba bb5b 15bc
000000d0: aa10 d23b f06d 17bc bee5 a43e c7eb 9ebe
000000e0: 4608 96bc e728 96be 79c0 0e3d 456b 80bd
000000f0: edb7 a53c 673e 7bbe aa02 713e 9101 0fbd
00000100: 283e 293e a658 723e 9235 15bc b9b3 8cbe
00000110: 78f6 323e 123b 68be 2aac cabd 8a5b 3cbe

encoder.encoder.0.0.bias f4 [8]
-0.03893478 -0.23254363 -0.33460003 -0.053273696 -0.0049368534 -0.03456578 0.22639817 -0.17014514
00000000: 137a 1fbd eb1f 6ebe b250 abbe 8535 5abd
00000010: 54c5 a1bb d994 0dbd ecd4 673e 873a 2ebe

encoder.encoder.0.1.weight f4 [8]
1.1300378 0.9539064 1.0382001 1.2638477 0.8471432 0.7931821 1.2622815 0.9372653
00000000: 14a5 903f 3633 743f bee3 843f c3c5 a13f
00000010: 60de 583f fb0d 4b3f 7192 a13f 9ef0 6f3f

encoder.encoder.0.1.bias f4 [8]
0.16827786 -0.23174259 0.055918183 0.37773138 -0.39819068 0.3989666 0.0008393376 0.040809035
00000000: 0851 2c3e ee4d 6dbe 770a 653d 0266 c13e
00000010: a6df cbbe 5a45 cc3e fe06 5c3a 6027 273d

encoder.encoder.0.1.running_mean f4 [8]
-0.13257279 -0.16403197 -0.36256215 -0.17189285 0.0672094 0.028766857 0.21066652 -0.18335801
00000000: 29c1 07be fff7 27be bfa1 b9be ae04 30be
00000010: 15a5 893d 79a8 eb3c f7b8 573e 34c2 3bbe

encoder.encoder.0.1.running_var f4 [8]
0.059930965 0.032175303 0.006689886 0.09628483 0.037220307 0.02899455 0.002204801 0.0020350474
00000000: 2c7a 753d 40ca 033d d536 db3b fb30 c53d
00000010: 5274 183d fb85 ed3c 6c7e 103b 6e5e 053b

encoder.encoder.1.0.weight f4 [16, 8, 3, 3]
0.15291426 -0.18525255 -0.07429162 -0.10967045 -0.08635408 0.18896843 -0.08984919 -0.11744832
-0.048612196 0.18763639 0.10020837 -0.09228993 0.103783995 -0.035096247 0.07636306 0.1376456
-0.07299647 -0.008244375 0.08456861 0.04295357 0.119728126 -0.11124518 0.2617937 0.21524866
0.039949413 0.3022185 0.003111334 0.094394565 -0.14156486 -0.099184446 -0.13119811 -0.14415644
0.014968502 -0.05629011 -0.09523535 -0.03999207 0.0097320685 0.21304041 -0.072402865 -0.0028720545
0.26733857 0.009106499 0.17832553 0.221445 0.06311416 0.04077994 0.25301406 0.054686476
-0.1192643 0.21884918 0.07352299 -0.07277027 0.27138445 0.08277501 -0.0709697 0.043413203
-0.13318315 -0.007898111 0.086253844 -0.09302914 -0.05690828 -0.00032201063 -0.1843927 0.1856765
0.046991628 -0.062359788 0.080991596 0.08242139 -0.09735131 0.11084897 0.108177334 0.096843764
0.03492467 0.14035241 0.097420536 -0.0068852906 -0.03057118 -0.1300987 -0.22926465 -0.21760583
-0.09514114 -0.1616343 -0.35283473 -0.26551825 0.07756039 0.031608842 0.060122564 0.012641429
0.041890435 0.09090629 -0.09278859 -0.12311963 0.026612237 -0.13630253 0.06330499 -0.070889525
-0.0036869342 0.1714534 0.061929803 -0.01216846 0.021637818 0.0153251905 0.06566228 -0.20615065
0.037185982 -0.23253664 -0.266599 -0.13004892 -0.123631164 -0.047064994 -0.11810457 -0.09160022
0.107563876 0.08211072 0.10050282 0.13189241 0.09774794 0.011332059 -0.1264893 -0.15672436
0.09013833 0.026915316 0.09182557 0.11567429 0.22647175 0.15254398 -0.07003707 -0.11295705
-0.056150556 -0.042150076 -0.022378154 0.06277068 0.064961575 0.14164263 -0.008215977 0.0293339
-0.008612927 -0.14711997 0.088015705 0.021807166 0.034413837 0.06346353 0.035022985 0.106494285
0.060717836 -0.0012480443 0.19861527 0.1482196 0.25733802 0.14700133 0.43360063 0.2831716
0.21722497 0.114779904 0.028699728 0.1864777 0.14111891 -2.01694e-05 -0.026106322 0.08733688
-0.01265718 -0.00043169677 0.08352794 0.1098723 0.18601188 -0.017482342 -0.07775733 -0.15780516
0.2244166 -0.22415024 -0.33525854 0.079691574 0.12226352 0.14986221 0.27906182 0.31916732
0.20982417 0.22657901 0.44290718 0.28973573 -0.040758356 -0.018443253 0.006627486 -0.06049434
0.05814887 0.03881184 0.033437077 -0.038846746 0.031742368 0.16151679 -0.053658556 -0.021985805
-0.009686312 -0.1274883 -0.028261092 -0.08139452 -0.081020385 -0.074217506 0.041076344 0.05401203
0.026844826 0.09519355 -0.16022094 -0.22851856 -0.0204721 -0.2859036 -0.24398607 0.049609277
-0.078579 -0.009879426 -0.13822274 -0.33128455 -0.2849234 0.012040433 -0.049792103 -0.09203162
-0.04901297 -0.09635669 0.11921118 0.035152916 0.031184752 0.097358376 0.1825073 0.053626347
0.019283446 -0.060426902 -0.011217639 -0.0020277149 0.046933677 0.008291533 0.10018008 -0.050621014
-0.2034706 0.05486796 -0.001025948 0.03368835 -0.042599298 0.09824577 0.072941884 -0.04663023
0.07012355 -0.13225634 -0.03793259 -0.00065366435 0.06538127 0.024179827 0.12542099 -0.071671546
0.0010013618 -0.003271643 0.0713852 0.015241999 -0.048915017 0.17224886 0.053960428 0.33730915
00000000: 8e95 1c3e d8b2 3dbe 3426 98bd e79a e0bd
00000010: 68da b0bd f180 413e da02 b8bd bf88 f0bd
00000020: 951d 47bd c123 403e 0c3a cd3d 8102 bdbd
00000030: b48c d43d 15c1 0fbd 3c64 9c3d f8f2 0c3e
00000040: 2c7f 95bd 6a13 07bc 4f32 ad3d 15f0 2f3d
00000050: 0534 f53d 83d4 e3bd d309 863e 256a 5c3e
00000060: ffa1 233d 62bc 9a3e 86e7 4b3b f051 c13d
00000070: 61f6 10be 3721 cbbd cc58 06be bf9d 13be
00000080: 733e 753c 7590 66bd c00a c3bd bace 23bd
00000090: 4173 1f3c 4427 5a3e f447 94bd 1439 3cbb
000000a0: 9ae0 883e 6d33 153c f89a 363e 7ac2 623e
000000b0: ff41 813d de08 273d 0f8b 813e edfe 5f3d
000000c0: d740 f4bd 001a 603e 3993 963d 9408 95bd
000000d0: e7f2 8a3e f285 a93d 9058 91bd 0bd2 313d
000000e0: 2a61 08be 1467 01bc dba5 b03d 1086 bebd
000000f0: a818 69bd 89d3 a8b9 71d1 3cbe fb21 3e3e
00000100: 4b7a 403d fa6c 7fbd ecde a53d 8ccc a83d
00000110: 2060 c7bd c904 e33d 148c dd3d 0656 c63d
00000120: 2c0d 0f3d 8bb8 0f3e 6b84 c73d 019e e1bb
00000130: 6970 fabc 9838 05be 5ac4 6abe 10d4 5ebe
00000140: 5cd9 c2bd 7683 25be c1a6 b4be 02f2 87be
00000150: fbd7 9e3d 4678 013d 1443 763d ff1d 4f3c
00000160: 4e95 2b3d 142d ba3d f207 bebd 2526 fcbd
00000170: e801 da3c e492 0bbe 0ca6 813d 872e 91bd
00000180: 7ea0 71bb 7b91 2f3e 1baa 7d3d 385e 47bc
00000190: cb41 b13c 8216 7b3c f279 863d 2819 53be
000001a0: 5450 183d 161e 6ebe aa7f 88be 8b2b 05be
000001b0: 5632 fdbd 39c7 40bd cfe0 f1bd e598 bbbd
000001c0: 734a dc3d aa29 a83d 6cd4 cd3d ce0e 073e
000001d0: 1230 c83d 1aaa 393c 6986 01be 5a7c 20be
000001e0: 729a b83d 827d dc3c 0b0f bc3d a4e6 ec3d
000001f0: 36e8 673e 7d34 1c3e 986f 8fbd 0756 e7bd
00000200: 20fe 65bd 8fa5 2cbd 6452 b7bc ea8d 803d
00000210: 930a 853d c40a 113e 4e9c 06bc a64d f03c
00000220: 3c1d 0dbc 9ea6 16be 9441 b43d f1a4 b23c
00000230: 86f5 0c3d 2bf9 813d 4374 0f3d ad19 da3d
00000240: 44b3 783d 6b95 a3ba cd61 4b3e e1c6 173e
00000250: cfc1 833e 8487 163e e700 de3e defb 903e
00000260: 3970 5e3e ba11 eb3d b11b eb3c 03f4 3e3e
00000270: 7a81 103e 7531 a9b7 eddc d5bc aedd b23d
00000280: 1060 4fbc 5c55 e2b9 b210 ab3d ba04 e13d
00000290: e679 3e3e 2137 8fbc 3c3f 9fbd ad97 21be
000002a0: 77cd 653e a487 65be 02a7 abbe 5635 a33d
000002b0: 4c65 fa3d 7b75 193e 31e1 8e3e e669 a33e
000002c0: 26dc 563e 5404 683e bbc4 e23e 3e58 943e
000002d0: 3cf2 26bd 4e16 97bc 622b d93b eac8 77bd
000002e0: 822d 6e3d 2af9 1e3d 51f5 083d c41d 1fbd
000002f0: 4904 023d a864 253e 13c9 5bbd 931b b4bc
00000300: 56b3 1ebc 4b8c 02be ce83 e7bc 2cb2 a6bd
00000310: 04ee a5bd 59ff 97bd ab3f 283d b83b 5d3d
00000320: aee9 db3c d6f4 c23d f510 24be c500 6abe
00000330: 1bb5 a7bc f561 92be 7cd7 79be 1933 4b3d
00000340: 07ee a0bd 51dd 21bc 438a 0dbe 219e a9be
00000350: 7be1 91be 3c45 453c cef2 4bbd 137b bcbd
00000360: d3c1 48bd a856 c5bd fe24 f43d 81fc 0f3d
00000370: 2a77 ff3c d463 c73d 32e3 3a3e 4da7 5b3d
00000380: 51f8 9d3c 3382 77bd 30ca 37bc 69e3 04bb
00000390: 873d 403d 36d9 073c 372b cd3d fb57 4fbd
000003a0: 995a 50be 3abd 603d 1a79 86ba ccfc 093d
000003b0: 9a7c 2ebd 1435 c93d 8e62 953d 57ff 3ebd
000003c0: f09c 8f3d 356e 07be 345f 1bbd ac5a 2bba
000003d0: 9ee6 853d c614 c63c 5c6e 003e 88c8 92bd
000003e0: 2040 833a 1069 56bb 6732 923d 94b9 793c
000003f0: 1d5b 48bd 0162 303e 9c05 5d3d c9b3 ac3e

encoder.encoder.1.0.bias f4 [16]
-0.08956373 -0.025876567 -0.15725227 0.052791398 -0.0011638115 0.20205627 -0.16145393 -0.05853693
0.07947034 -0.17284657 0.052522965 0.098360844 0.02445693 -0.0044387993 0.076690294 0.03394435
00000000: 306d b7bd 18fb d3bc bd06 21be cb3b 583d
00000010: 098b 98ba d7e7 4e3e 2e54 25be 6bc4 6fbd
00000020: 58c1 a23d b1fe 30be 5222 573d 6971 c93d
00000030: e659 c83c 5973 91bb cd0f 9d3d 3b09 0b3d

encoder.encoder.1.1.weight f4 [16]
0.97519356 0.8000207 1.5618299 1.1910965 1.0493191 1.0630454 0.8425923 0.74073553
0.73705995 0.96747315 0.9491523 1.0137817 1.0207287 1.1379017 0.8476938 0.88993895
00000000: 49a6 793f 28ce 4c3f 0bea c73f da75 983f
00000010: 1750 863f df11 883f 21b4 573f d8a0 3d3f
00000020: f6af 3c3f 52ac 773f a5fb 723f 99c3 813f
00000030: 3da7 823f c3a6 913f 7602 593f 0ad3 633f

encoder.encoder.1.1.bias f4 [16]
0.0019578382 0.40397662 0.05683548 0.04455478 0.1969787 0.38280532 0.54664814 0.93845433
0.18181466 -0.29741344 0.03699829 -0.29895884 -0.02462152 -0.17886807 0.095832 0.42148092
00000000: 134f 003b 06d6 ce3e 52cc 683d 137f 363d
00000010: c9b4 493e 0fff c33e 22f1 0b3f 8b3e 703f
00000020: 9f2d 3a3e 9346 98be 858b 173d 2211 99be
00000030: 12b3 c9bc 3129 37be 9143 c43d 59cc d73e

encoder.encoder.1.1.running_mean f4 [16]
0.40073946 -0.65722454 1.5610057 1.5169237 -4.71179 -5.6519885 -0.17644973 -1.9149597
1.1556823 1.8537655 1.8139659 -1.0300963 1.8016549 1.1232419 1.018679 -0.84309345
00000000: b92d cd3e de3f 28bf 09cf c73f 8e2a c23f
00000010: fcc6 96c0 17dd b4c0 3daf 34be 661d f5bf
00000020: 66ed 933f 3048 ed3f 0930 e83f 32da 83bf
00000030: a19c e63f 64c6 8f3f 1364 823f f9d4 57bf

encoder.encoder.1.1.running_var f4 [16]
3.0600648 0.47261596 0.64829963 2.4391813 3.0541377 2.496237 0.7804965 0.20908853
0.6577081 2.4109662 0.7568063 1.1515095 2.3715127 0.88756657 0.21461329 0.588892
00000000: 1ad8 4340 b8fa f13e f7f6 253f 8c1b 1c40
00000010: fe76 4340 59c2 1f40 9ece 473f 4e1b 563e
00000020: 8f5f 283f 454d 1a40 0fbe 413f aa64 933f
00000030: ddc6 1740 9037 633f 96c3 5b3e a0c1 163f

encoder.encoder.2.0.weight f4 [32, 16, 3, 3]
0.060409416 0.100421414 -0.14704192 0.08155102 -0.005843376 -0.11126638 0.09090267 0.06268684
-0.14833394 -0.001773812 0.03613073 -0.0659125 0.1584724 -0.30370003 -0.07478748 0.0030797282
0.0032792264 -0.1124979 -0.024386328 -0.19406128 -0.15246402 -0.24361876 -0.101081476 -0.1331708
-0.080539174 -0.14063983 -0.053688157 -0.012298462 0.22989753 0.08236321 0.17394179 0.038123846
-0.29025447 0.10955922 -0.09800099 -0.11613418 -0.051404487 -0.06877596 -0.05203634 -0.022808144
-0.002939581 -0.058816075 -0.0038158866 0.051824566 -0.033153653 -0.057684302 -0.031782575 -0.022586225
-0.018815676 0.21307638 0.04159047 0.06577729 0.1344854 0.0349456 -0.07982247 0.058921933
0.030224929 -0.09004461 0.08250379 -0.00928808 -0.052097924 -0.17147695 -0.18328756 0.050762746
0.036707938 0.08960789 0.107019715 0.18628927 0.016530018 0.052689545 0.054952376 -0.12629546
-0.056007676 -0.0558297 0.012888613 0.064107694 -0.07007957 -0.10901756 0.046745036 -0.01504548
-0.067865 0.12166814 0.12675753 -0.06912918 0.204224 -0.27445593 0.017574232 0.11909945
0.028771225 -0.021634363 0.11955854 0.07082217 -0.09451312 -0.0053563705 -0.14966519 -0.007347956
-0.0161489 -0.1434417 0.09150733 -0.036263265 -0.024792457 -0.006239131 0.066640705 -0.02172112
-0.098284155 -0.009829143 -0.017741838 -0.23431171 0.03744934 0.23625074 0.06463993 0.23514959
0.097764194 -0.28319132 0.15053457 -0.02619115 -0.22938462 0.022884633 0.16190515 0.06886905
0.09647679 -0.22401373 -0.095295034 0.04450112 -0.20056511 -0.06326627 0.07206779 0.041550733
0.064192496 0.057922065 -0.076426014 -0.237315 0.041796483 0.058619704 -0.008269173 -0.04399391
0.05427402 -0.053320214 0.10800066 -0.41401652 0.04670199 0.10624421 -0.2112725 -0.008747907
0.027091932 0.1618763 0.010493583 -0.2036879 0.0068060146 0.010427584 0.03035419 -0.017358683
0.17774539 0.10151361 0.08550609 0.020317227 -0.4000985 -0.4149956 0.043588914 0.09025736
0.06062709 -0.082886964 -0.25502816 -0.28184673 -0.14872772 -0.07784781 -0.27236605 -0.33764854
-0.13509443 -0.2603974 -0.18693675 0.022648022 0.15443254 0.04057466 -0.038139317 0.0008155103
-0.008132366 -0.1692268 -0.14026102 0.0011330764 0.04218585 0.18488456 -0.03231237 -0.093798235
-0.18957284 -0.023384027 -0.07267308 -0.082773015 -0.1209621 -0.110188946 -0.00907977 -0.052754477
0.05065791 0.07547637 -0.11448741 0.115859166 0.13255341 -0.068816826 -0.035372652 -0.040484514
-0.022107894 0.146219 0.1426733 0.04758258 -0.111827694 -0.16478162 0.02979661 -0.061001576
-0.21256779 -0.0127707925 0.19107823 0.12529208 -0.08655778 0.08395748 0.099948734 -0.034422055
0.07426809 0.0734474 -0.061902616 -0.023128917 -0.15302232 -0.02938863 0.03640038 -0.023766473
-0.04885436 0.05436613 0.106474765 -0.046126988 -0.33729208 -0.27403402 -0.07585114 0.14907953
0.06837766 0.02363154 -0.039590687 -0.14317912 -0.23897481 0.04312733 0.052756637 -0.098486006
-0.019629963 -0.056803945 0.00726638 0.04119272 0.018672002 -0.036153954 -0.011957166 0.18212794
0.0670478 -0.080518566 -0.05464242 0.021447476 0.03267462 0.097603776 -0.07877642 0.06885913
00000000: dd6f 773d bea9 cd3d 2892 16be 3904 a73d
00000010: ca79 bfbb a1df e3bd 2e2b ba3d f561 803d
00000020: dae4 17be 417f e8ba d1fd 133d 22fd 86bd
00000030: 9746 223e 927e 9bbe 2e2a 99bd 44d5 493b
00000040: 4ae8 563b 4d65 e6bd d6c5 c7bc 00b8 46be
00000050: 871f 1cbe 3277 79be ce03 cfbd ed5d 08be
00000060: b9f1 a4bd e303 10be 1de8 5bbd 7d7f 49bc
00000070: 426a 6b3e 0bae a83d cc1d 323e c027 1c3d
00000080: 3c9c 94be 9660 e03d beb4 c8bd c2d7 edbd
00000090: 838d 52bd 69da 8cbd 0f24 55bd 25d8 babc
000000a0: fca5 40bb 20e9 70bd f413 7abb ff45 543d
000000b0: 20cc 07bd 6046 6cbd 722e 02bd bf06 b9bc
000000c0: 5523 9abc b230 5a3e c55a 2a3d 3eb6 863d
000000d0: 8ab6 093e 1e23 0f3d f779 a3bd 2058 713d
000000e0: 459a f73c 4f69 b8bd bff7 a83d 082d 18bc
000000f0: a264 55bd a797 2fbe bcaf 3bbe 99ec 4f3d
00000100: 105b 163d 5784 b73d 272d db3d 9dc2 3e3e
00000110: f669 873c fed0 573d be15 613d 9953 01be
00000120: 4e68 65bd afad 64bd c32a 533c e54a 833d
00000130: e185 8fbd 9944 dfbd b977 3f3d 5181 76bc
00000140: cefc 8abd 252d f93d bacc 013e 9993 8dbd
00000150: 1920 513e 7d85 8cbe d6f7 8f3c 6aea f33d
00000160: a2b1 eb3c 8c3a b1bc 1cdb f43d 370b 913d
00000170: 1890 c1bd 7e84 afbb d541 19be 1fc7 f0bb
00000180: b34a 84bc 62e2 12be 3268 bb3d ca88 14bd
00000190: 8d19 cbbc a071 ccbb ec7a 883d 7ef0 b1bc
000001a0: 3449 c9bd 6a0a 21bc 5557 91bc 69ef 6fbe
000001b0: 7b64 193d b7eb 713e f161 843d 0ecb 703e
000001c0: 9838 c83d 74fe 90be bc25 1a3e d38e d6bc
000001d0: cde3 6abe 8e78 bb3c 77ca 253e 370b 8d3d
000001e0: a095 c53d db63 65be 0b2a c3bd ce46 363d
000001f0: f160 4dbe bf91 81bd 4798 933d 1a31 2a3d
00000200: 5b77 833d b03f 6d3d 3e85 9cbd b402 73be
00000210: ca32 2b3d 371b 703d 6d7b 07bc f532 34bd
00000220: 6f4e 5e3d 4c66 5abd 732f dd3d f9f9 d3be
00000230: 964a 3f3d 9096 d93d d157 58be 6253 0fbc
00000240: e6ef dd3c e7c2 253e 47ed 2b3c 9093 50be
00000250: fd04 df3b 75d8 2a3c 5aa9 f83c cc33 8ebc
00000260: e302 363e 5ee6 cf3d d11d af3d 5070 a63c
00000270: b6d9 ccbe 4e7a d4be 4a8a 323d dad8 b83d
00000280: 1d54 783d a4c0 a9bd 0d93 82be 374e 90be
00000290: 144c 18be ac6e 9fbd 9073 8bbe 45e0 acbe
000002a0: 3256 0abe cf52 85be 596c 3fbe 5888 b93c
000002b0: 9023 1e3e 9d31 263d f937 1cbd f8c7 553a
000002c0: 9e3d 05bc ca49 2dbe 96a0 0fbe bc83 943a
000002d0: 12cb 2c3d 6152 3d3e fa59 04bd 4a19 c0bd
000002e0: 621f 42be dc8f bfbc a0d5 94bd e684 a9bd
000002f0: faba f7bd beaa e1bd 51c3 14bc 1415 58bd
00000300: ab7e 4f3d 5b93 9a3d 6078 eabd 9247 ed3d
00000310: 15bc 073e d6ef 8cbd eae2 10bd 17d3 25bd
00000320: 9d1b b5bc 6fba 153e f318 123e f4e5 423d
00000330: eb05 e5bd 83bc 28be 0518 f43c cadc 79bd
00000340: 5fab 59be 963c 51bc 03aa 433e 914c 003e
00000350: 3545 b1bd e6f1 ab3d ecb1 cc3d 24fe 0cbd
00000360: de19 983d 976b 963d 998d 7dbd db78 bdbc
00000370: e2b1 1cbe 6dc0 f0bc 9118 153d e8b1 c2bc
00000380: 821b 48bd 05af 5e3d 710f da3d a7ef 3cbd
00000390: 8cb1 acbe 304e 8cbe d857 9bbd 4ea8 183e
000003a0: 9609 8c3d ee96 c13c d829 22bd 8c9d 12be
000003b0: d0b5 74be 48a6 303d 5817 583d 08b3 c9bd
000003c0: 04cf a0bc 41ab 68bd d01a ee3b b3b9 283d
000003d0: 07f6 983c 2b16 14bd fde7 43bc bf7f 3a3e
000003e0: 5b50 893d ebe6 a4bd bbd0 5fbd 9eb2 af3c
000003f0: d3d5 053d 7de4 c73d 8855 a1bd 0406 8d3d

encoder.encoder.2.0.bias f4 [32]
-0.005992178 0.014689718 0.05118217 0.005100909 0.081015036 0.0485763 0.06574073 0.04951758
-0.12140183 0.011627871 -0.026396979 0.0406174 0.051853437 0.019733405 0.078247316 -0.12992918
-0.04852119 0.06993773 0.02172984 -0.015932579 0.011288701 0.089017265 -0.037675373 -0.010414453
-0.0118879285 -0.03649023 0.041944318 0.06805345 0.033004917 -0.0020934052 0.082430795 -0.08372474
00000000: 085a c4bb 25ad 703c 65a4 513d 8725 a73b
00000010: 36eb a53d f1f7 463d 13a3 863d f2d2 4a3d
00000020: 86a1 f8bd d382 3e3c 7a3e d8bc 6e5e 263d
00000030: 4564 543d f3a7 a13c 2140 a03d 280c 05be
00000040: 28be 46bd 833b 8f3d c702 b23c 0a85 82bc
00000050: 3ef4 383c af4e b63d 7e51 1abd 62a1 2abc
00000060: 96c5 42bc c876 15bd cecd 2b3d 9b5f 8b3d
00000070: 2a30 073d 8331 09bb 7ad1 a83d e077 abbd

encoder.encoder.2.1.weight f4 [32]
0.24488176 0.41690025 0.30084953 0.42563942 0.9780458 0.760036 0.28552082 0.8597127
0.32115784 0.4450105 0.37506145 0.74855274 0.63324314 0.3637837 0.8685522 0.26873448
0.6704305 0.6430935 0.5752905 0.2683901 0.4315098 0.6758956 0.6523361 0.66972065
0.91868305 0.42559904 0.7178533 0.32936558 0.31054595 0.28144914 0.6055366 0.29645875
00000000: 49c2 7a3e f373 d53e f308 9a3e 69ed d93e
00000010: 3661 7a3f b891 423f c92f 923e 2216 5c3f
00000020: cd6e a43e 6bd8 e33e 0e08 c03e 27a1 3f3f
00000030: 391c 223f db41 ba3e 7059 5e3f 9197 893e
00000040: 55a1 2b3f c7a1 243f 3d46 133f 6d6a 893e
00000050: daee dc3e 7e07 2d3f 80ff 263f d072 2b3f
00000060: d02e 6b3f 1ee8 d93e 3cc5 373f 9ba2 a83e
00000070: e1ff 9e3e 1a1a 903e 7204 1b3f 71c9 973e

encoder.encoder.2.1.bias f4 [32]
0.10998835 0.052616574 0.13060178 -0.026820293 -0.13001463 -0.030356944 0.13789003 -0.16574498
-0.012821963 0.059190094 -0.13381527 0.16560595 -0.25452173 -0.045130037 -0.2533466 -0.013000743
-0.1901576 -0.33259988 -0.07174417 -0.008565164 0.27216706 -0.20334257 -0.030575007 0.033152897
-0.2064371 -0.14761579 -0.053363424 0.049980164 -0.009018395 0.06211848 -0.22768743 0.026770426
00000000: 9241 e13d 7a84 573d 79bc 053e 3bb6 dbbc
00000010: 8e22 05be 20af f8bc 0b33 0d3e 0db9 29be
00000020: 3613 52bc 5071 723d df06 09be 9b94 293e
00000030: ac50 82be 46da 38bd a5b6 81be 1201 55bc
00000040: adb8 42be 884a aabe 9bee 92bd e754 0cbc
00000050: 7b59 8b3e 0939 50be 7078 fabc 55cb 073d
00000060: 3f64 53be 9828 17be 9b93 5abd 00b8 4c3d
00000070: e4c1 13bc f36f 7e3d e526 69be a74d db3c

encoder.encoder.2.1.running_mean f4 [32]
-1.0769676 -2.4664326 -0.79198307 -0.6688497 -2.1302283 -2.075489 -0.8803187 -1.5935634
-1.2311305 -1.7123923 0.792638 -2.330523 1.4956896 -1.9660115 -0.32484418 -0.2953983
-0.79119426 2.1897051 -3.9560218 0.98175365 -2.0976288 2.5962934 -2.8511076 0.050074697
-3.8041627 -1.6492938 -2.189079 -0.49398682 0.8778549 0.27146372 2.8089948 -1.0571693
00000000: 13da 89bf 08da 1dc0 67bf 4abf bc39 2bbf
00000010: a955 08c0 d0d4 04c0 915c 61bf e3f9 cbbf
00000020: af95 9dbf ac2f dbbf 53ea 4a3f 4a27 15c0
00000030: c272 bf3f 44a6 fbbf fa51 a6be 723e 97be
00000040: b58b 4abf 2124 0c40 762f 7dc0 3554 7b3f
00000050: 8d3f 06c0 ac29 2640 8c78 36c0 201b 4d3d
00000060: 6777 73c0 0f1c d3bf df19 0cc0 d7eb fcbe
00000070: 19bb 603f 4bfd 8a3e 92c6 3340 5351 87bf

encoder.encoder.2.1.running_var f4 [32]
3.4039779 2.2242339 4.624794 5.670362 11.227003 13.242722 1.5380338 12.131622
2.070451 3.284732 1.712699 33.16402 4.157151 2.4346714 19.402191 2.219795
7.445402 5.047716 7.912527 1.6882073 16.847656 38.715427 14.534413 10.686647
6.5181828 1.4816419 17.050337 4.3841534 1.3624312 1.5828596 13.612118 1.4030735
00000000: c6da 5940 d959 0e40 50fe 9340 9b73 b540
00000010: cea1 3341 30e2 5341 4bde c43f 201b 4241
00000020: 4582 0440 0d39 5240 b939 db3f f5a7 0442
00000030: 6207 8540 a8d1 1b40 b037 9b41 1f11 0e40
00000040: bc40 ee40 e486 a140 6c33 fd40 2d17 d83f
00000050: 00c8 8641 99dc 1a42 f58c 6841 82fc 2a41
00000060: f494 d040 71a6 bd3f 1767 8841 fc4a 8c40
00000070: 2564 ae3f 259b ca3f 3ccb 5941 ea97 b33f

convlstm_layers.0.conv.weight f4 [128, 64, 3, 3]
0.14942975 0.10352481 0.15012522 0.091286324 0.01399521 0.19473185 -0.0063636233 0.101624556
0.15861134 0.03873266 0.08156244 -0.045275204 0.05120976 -0.11472067 0.08764177 0.08447352
0.022246845 -0.038695503 0.01712566 0.13640447 0.048099764 -0.00984942 0.07303068 0.048838396
0.16756412 0.07485684 -0.10580507 0.01378918 -0.093669705 -0.18333995 0.070516974 -0.06740217
-0.41063452 0.1001034 -0.089561574 -0.3517697 -0.053000785 -0.054291777 -0.18251629 -0.3012754
0.06770783 -0.20476978 -0.20862542 -0.062241618 -0.04953493 0.019313052 0.07240095 0.016852006
-0.008966862 -0.00020610014 -0.09656503 -0.07240355 0.003750938 -0.026938109 0.039564807 0.1191844
0.09134212 0.09839493 -0.07335788 -0.10754555 0.101192586 -0.019966671 0.0739739 0.11167865
0.058955837 -0.18600447 0.015222545 -0.15844844 -0.043426137 -0.10639665 -0.06898348 -0.15853754
0.02883875 -0.0018219372 0.12891296 -0.03375071 0.1329076 0.16261065 0.025723834 0.12060767
0.09047852 -0.013305249 0.19445793 -0.023190692 -0.06675821 0.022661898 -0.02073445 -0.007327357
-0.019748762 -0.018871121 -0.041283835 0.024414424 0.014806991 -0.014548017 -0.025431763 -0.00614361
-0.15078183 -0.074821144 0.06080191 -0.046632573 0.03992439 0.036021367 -0.118349224 0.12132637
0.13139145 0.083638474 0.08638592 0.05543681 0.06846731 0.14621034 -0.0028348668 -0.037697524
0.18322422 0.08000453 -0.01344551 0.056668285 0.030416064 -0.081228524 -0.032497328 -0.03468418
0.011037848 -0.22149578 -0.13181072 -0.05821179 -0.040360924 -0.116329625 -0.013898948 0.052734297
-0.009931433 0.028053936 0.0244314 0.15275317 0.06963709 0.087324575 0.10982912 0.10830982
0.04053434 0.0629435 0.062036224 -0.11465462 0.14431332 0.12964381 0.123335645 0.038259864
0.0161839 0.056746785 -0.079354614 -0.10043869 -0.10905298 -0.15703881 -0.08601725 -0.10112292
-0.051314272 -0.05959891 -0.0090469895 -0.08350345 0.02317932 0.09834898 0.043476786 -0.14145185
-0.006024071 -0.019259034 -0.0012795628 0.07253343 -0.00033374588 0.07849064 0.017305618 0.08780226
-0.0034831434 0.19050264 0.12257089 0.00587544 -0.026663816 -0.0005157282 0.00032367784 -0.014995523
0.14341657 0.0079968795 0.19673458 0.15190355 -0.01591616 -0.08162089 -0.10627053 -0.011218895
0.048425116 -0.16743907 -0.1111602 0.017753188 -0.04960077 -0.010029986 0.012546173 -6.845787e-05
0.024970293 -0.55265087 0.09349949 0.07082549 -0.0010232982 0.16024119 0.12614876 0.019796992
-0.14198665 -0.12285692 -0.009002461 -0.0036846402 0.03962865 -0.09867254 -0.027096217 0.0090724835
-0.058167186 -0.009738133 0.007783715 -0.02178043 0.05282008 0.067118 0.005435838 0.08613545
-0.06427695 -0.06113961 -0.13218442 0.016345145 -0.067572646 -0.15838437 -0.00030249005 -0.055011902
-0.026828388 0.052767593 0.08616849 0.17137362 -0.050513636 -0.26460117 0.47302926 -0.06187376
-0.055555858 0.15555455 0.04663049 0.0868188 -0.030877922 -0.025423458 -0.0148959 -0.16993625
0.055303346 0.01756757 0.03313864 0.0674332 0.006099426 0.008593622 -0.047426827 0.024753453
0.0016099816 -0.0064471136 -0.044851877 0.03554642 0.04573777 -0.017238075 0.0399322 0.04353992
00000000: 1d04 193e d104 d43d 6dba 193e 53f4 ba3d
00000010: 2a4c 653c c967 473e f185 d0bb 8920 d03d
00000020: 036b 223e 23a6 1e3d 350a a73d 7e72 39bd
00000030: 53c1 513d acf2 eabd 877d b33d 7400 ad3d
00000040: 043f b63c 2d7f 1ebd 1d4b 8c3c 9dad 0b3e
00000050: 4204 453d 765f 21bc 1c91 953d c50a 483d
00000060: ee95 2b3e 8b4e 993d 54b0 d8bd 03ec 613c
00000070: e7d5 bfbd 78bd 3bbe 346b 903d 260a 8abd
00000080: b03e d2be 0303 cd3d 0f6c b7bd 281b b4be
00000090: 5a17 59bd 0e61 5ebd 8de5 3abe c540 9abe
000000a0: 67aa 8a3d 2baf 51be e7a1 55be 11f1 7ebd
000000b0: 24e5 4abd 6836 9e3c f346 943d 380d 8a3c
000000c0: bfe9 12bc 961c 58b9 e3c3 c5bd 5048 94bd
000000d0: 4cd2 753b 4fad dcbc b50e 223d f316 f43d
000000e0: 9411 bb3d 4883 c93d a83c 96bd d740 dcbd
000000f0: 0f3e cf3d 2591 a3bc a17f 973d c7b7 e43d
00000100: ad7b 713d f577 3ebe fb67 793c 4f40 22be
00000110: 9bdf 31bd 7de6 d9bd 3647 8dbd aa57 22be
00000120: 3e3f ec3c 11ce eeba c201 043e 2f3e 0abd
00000130: ee18 083e 6883 263e caba d23c 2701 f73d
00000140: cd4c b93d 42fe 59bc fb1f 473e 68fa bdbc
00000150: 87b8 88bd 72a5 b93c 4bdb a9bc 531a f0bb
00000160: 28c8 a1bc 9c97 9abc 3d19 29bd c200 c83c
00000170: 0699 723c ce5a 6ebc 4656 d0bc 5650 c9bb
00000180: 8d66 1abe d43b 99bd 6c0b 793d cc01 3fbd
00000190: c287 233d 248b 133d 1461 f2bd f679 f83d
000001a0: 7b8b 063e a64a ab3d 1aeb b03d b511 633d
000001b0: 9738 8c3d 2ab8 153e 2cc9 39bb b868 1abd
000001c0: 219f 3b3e 6ad9 a33d 8e4a 5cbc 011d 683d
000001d0: 1c2b f93c 245b a6bd eb1b 05bd 0011 0ebd
000001e0: 17d8 343c cacf 62be 64f9 06be 7c6f 6ebd
000001f0: 7f51 25bd 3a3e eebd 6ab8 63bc ebff 573d
00000200: 73b7 22bc 5ed1 e53c 5c24 c83c 546b 1c3e
00000210: e49d 8e3d 3ad7 b23d 17ee e03d 8ad1 dd3d
00000220: 5607 263d 86e8 803d b219 7e3d 0bd0 eabd
00000230: dfc6 133e 59c1 043e 6697 fc3d 60b6 1c3d
00000240: 1994 843c 516f 683d ac84 a2bd cdb2 cdbd
00000250: 2b57 dfbd c8ce 20be d029 b0bd 8919 cfbd
00000260: ea2e 52bd fd1d 74bd d339 14bc db03 abbd
00000270: 8fe2 bd3c 316b c93d b714 323d c1d8 10be
00000280: 9265 c5bb 1fc5 9dbc 01b7 a7ba 688c 943d
00000290: 9dfa aeb9 b3bf a03d 83c4 8d3c acd1 b33d
000002a0: 7345 64bb 2013 433e 7206 fb3d c386 c03b
000002b0: 136e dabc ef31 07ba 4eb3 a939 c8af 75bc
000002c0: cbdb 123e 5805 033c ca74 493e 9b8c 1b3e
000002d0: 9b62 82bc da28 a7bd 5da4 d9bd 75cf 37bc
000002e0: 6a59 463d 2675 2bbe f5a7 e3bd 226f 913c
000002f0: 2d2a 4bbd cf54 24bc 778e 4d3c 0a91 8fb8
00000300: 808e cc3c 877a 0dbf a97c bf3d f40c 913d
00000310: 3120 86ba 4416 243e 242d 013e 4d2d a23c
00000320: f364 11be 699c fbbd 0f7f 13bc 017a 71bb
00000330: a751 223d d414 cabd e3f8 ddbc c1a4 143c
00000340: b740 6ebd b18c 1fbc 890e ff3b df6c b2bc
00000350: de59 583d 2975 893d 1d1f b23b c867 b03d
00000360: a2a3 83bd 876d 7abd 5a5b 07be 41e6 853c
00000370: 8763 8abd 832f 22be 8797 9eb9 2954 61bd
00000380: 35c7 dbbc d522 583d 1b79 b03d 917c 2f3e
00000390: 63e7 4ebd ce79 87be e430 f23e 576f 7dbd
000003a0: 8a8e 63bd b149 1f3e 9dff 3e3d 0ece b13d
000003b0: b2f3 fcbc db44 d0bc ef0d 74bc c503 2ebe
000003c0: c385 623d dde9 8f3c 62bc 073d 6b1a 8a3d
000003d0: b2dd c73b 43cc 0c3c a242 42bd c1c7 ca3c
000003e0: 0506 d33a 4f42 d3bb 9ab6 37bd 1f99 113d
000003f0: 8757 3b3d dd36 8dbc f28f 233d ea56 323d

convlstm_layers.0.conv.bias f4 [128]
-0.10039467 -0.09105638 -0.25403482 -0.17508605 0.16853768 -0.13576758 -0.13273248 -0.024775445
-0.065932535 -0.04459346 0.0075903586 0.023868904 -0.18664895 0.06900258 -0.13012631 -0.036714543
0.0037658226 -0.067704745 0.076337904 -0.098287724 -0.106702305 -0.10577311 -0.091141395 -0.0001951739
-0.07981552 -0.24510138 -0.11110747 -0.11822703 -0.06984435 -0.14172052 -0.11360549 -0.13492413
0.13713624 0.091448344 0.18915293 -0.0012931424 0.23693417 -0.0416039 0.12780644 0.08183975
0.15060884 -0.109304994 -0.0032652938 0.07659434 0.08035175 0.093006514 0.15602611 0.20226452
0.09121605 0.08304015 0.11495484 0.027349792 0.13227922 0.13050444 0.084757864 0.13075651
0.23124011 -0.009000029 -0.0146847265 0.21957669 0.1273808 0.10175688 0.07554889 0.08146514
0.038881212 -0.046324782 -0.04211989 0.024828866 -0.022079121 -0.021682713 0.056588177 -0.0025901499
-0.0029194886 -0.009799709 -0.0846422 0.036965746 0.030105907 0.011578799 0.029759686 0.19252518
0.02525657 -0.023155047 0.08214741 0.0008092633 0.11209352 0.08466504 0.10009532 0.16253744
0.18235679 -0.044581465 -0.018128362 0.053747702 -0.013530603 -0.019555248 -0.038008615 0.0358215
-0.10832058 -0.04450644 0.037357245 -0.23436725 0.08027111 0.03385116 -0.083316855 0.08720247
-0.017511722 0.024860622 -0.05234994 -0.14010097 -0.08874141 0.10579098 0.054656908 0.023526188
0.12352168 0.02604229 0.0140841305 -0.079571016 0.020285018 0.008010931 -0.082707986 -0.16266328
0.077377714 -0.096646234 -0.0071671414 0.06596438 -0.06599146 0.15818828 -0.036466025 -0.06904345
00000000: b99b cdbd c47b babd da10 82be c249 33be
00000010: 2495 2c3e a806 0bbe 06eb 07be e0f5 cabc
00000020: a307 87bd a2a7 36bd 8bb8 f83b b888 c33c
00000030: e720 3fbe 3a51 8d3d d53f 05be fd61 16bd
00000040: 05cc 763b c9a8 8abd 0c57 9c3d 134b c9bd
00000050: bd86 dabd 939f d8bd 57a8 babd 98a7 4cb9
00000060: 5276 a3bd dbfb 7abe 508c e3bd 0321 f2bd
00000070: 8e0a 8fbd 2f1f 11be ffa9 e8bd 8d29 0abe
00000080: 716d 0c3e 4549 bb3d 4eb1 413e a97e a9ba
00000090: df9e 723e da68 2abd b1df 023e 999b a73d
000000a0: 3439 1a3e 4cdb dfbd 8afe 55bb 7edd 9c3d
000000b0: 758f a43d 337a be3d 4fc5 1f3e 6e1e 4f3e
000000c0: 7bcf ba3d f410 aa3d 716d eb3d ac0c e03c
000000d0: 3474 073e f5a2 053e 8895 ad3d 09e5 053e
000000e0: 35ca 6c3e dc74 13bc 3598 70bc b6d8 603e
000000f0: 1d70 023e e965 d03d 60b9 9a3d 32d7 a63d
00000100: e841 1f3d 0ebf 3dbd e885 2cbd e865 cb3c
00000110: 46df b4bc f29f b1bc 01c9 673d 81bf 29bb
00000120: e454 3fbb f58e 20bc e458 adbd 6569 173d
00000130: aaa0 f63c 01b5 3d3c 96ca f33c 5225 453e
00000140: dee6 ce3c a7af bdbc e73c a83d be24 543a
00000150: 4a91 e53d dd64 ad3d c6fe cc3d 3770 263e
00000160: bdbb 3a3e 0e9b 36bd ee81 94bc 8d26 5c3d
00000170: 76af 5dbc 5432 a0bc ecae 1bbd 91b9 123d
00000180: 2ed7 ddbd 634c 36bd e903 193d f8fd 6fbe
00000190: 2e65 a43d 84a7 0a3d 07a2 aabd 3597 b23d
000001a0: be74 8fbc 81a8 cb3c e46c 56bd a176 0fbe
000001b0: 0ebe b5bd f1a8 d83d ecdf 5f3d feb9 c03c
000001c0: eff8 fc3d a456 d53c 20c1 663c 21f6 a2bd
000001d0: c42c a63c 4840 033c ce62 a9bd 3491 26be
000001e0: 3578 9e3d 76ee c5bd 57da eabb 5518 873d
000001f0: 8826 87bd 1cfc 213e 665d 15bd a766 8dbd

decoder.decoder.0.0.weight f4 [32, 32, 2, 2]
0.022449266 -0.15461597 0.011683434 0.02316533 -0.0560514 -0.014551946 0.043873653 0.037196234
-0.02110261 -0.09200396 0.13363819 -0.10263773 -0.051578116 -0.04295081 0.0967249 -0.050260987
0.023315847 -0.023391355 -0.02063583 0.02536422 0.017644688 -0.026792215 -0.09305443 0.123356394
0.095549054 0.06934911 0.021953868 0.054149963 0.07842149 -0.05392595 0.06779579 0.059629183
0.008357832 0.023523476 -0.017238626 0.09415673 0.07382651 0.033466067 -0.0034877048 0.060647406
-0.035350636 0.109971054 0.07093583 0.025341265 -0.022344388 0.032103963 0.02296116 -0.27614772
-0.06144319 0.031659592 -0.1725524 0.15931895 -0.10322592 -0.16288792 -0.0553989 0.09372139
-0.2501799 0.053872548 -0.087587066 -0.07461498 0.01152404 0.038960505 -0.097084254 -0.02134664
-0.15574856 -0.0090108095 -0.07403501 -0.12847595 0.14667682 0.05098158 0.017971773 -0.010335035
-0.08170665 -0.011932449 -0.02012389 -0.07222167 0.00283745 0.026236728 -0.039041977 -0.017529992
0.080896415 0.03322632 -0.049999494 -0.09894348 0.03757497 -0.0059388117 -0.029864743 -0.07405068
-0.028024064 -0.13996665 -0.10585464 0.051394872 -0.021742681 0.05647038 -0.053377014 0.03806805
-0.028062457 0.08947898 -0.016134707 0.107727006 0.06302236 0.027745634 -0.053031683 -0.045869935
0.08642087 0.017563472 0.09205839 0.05961566 0.05956569 0.0401597 0.096111536 0.05470776
-0.036003813 0.016373202 0.104868144 -0.11888583 0.06874702 0.01310249 0.15773635 0.022439875
0.0055372547 -0.020355336 -0.06437703 0.026125269 -0.004055735 0.20108813 0.081736326 0.019006789
-0.007841508 -0.004687901 0.011977686 0.03435503 0.0044442886 0.021874923 0.14349233 0.14693381
-0.009487603 0.009037474 -0.09409161 0.044025656 -0.09595587 0.045738794 0.092404425 0.029707765
0.036102977 -0.0061389687 0.027997315 -0.022133136 -0.03744779 0.0055096485 0.1862405 -0.0071566226
0.0028138373 -0.028869372 0.09655143 0.0044777016 -0.020988042 -0.04064121 -0.0045336904 -0.037756898
0.048720393 -0.03438979 0.030104874 0.03536607 -0.008573189 0.02894411 -0.07156707 -0.10862229
-0.05746721 0.058450025 0.03219757 -0.09505149 -0.06666335 0.049369387 -0.07171865 0.06346339
0.070756376 0.040531136 -0.023901237 0.10657583 -0.08014614 0.027005196 0.045140937 -0.122481726
0.061206106 -0.012751601 0.05732983 -0.015950039 0.008327958 -0.06322861 0.010006247 0.015038058
-0.016585296 -0.07088372 -0.18920383 0.006123908 -0.0018847107 -0.026235191 0.057268582 0.10074061
0.02951498 0.013458246 -0.045924984 0.02334729 0.056939144 -0.05613586 -0.08375571 -0.09392638
-0.042063437 -0.0188092 -0.007225278 0.078700066 -0.035065185 -0.045606833 -0.11079696 0.032655843
0.028469132 0.067868836 0.026520008 -0.16900808 -0.026065698 -0.09677434 -0.095338844 -0.095484026
0.015423697 0.04590562 -0.07275783 -0.11955801 -0.017375866 -0.053906467 -0.06861828 -0.10438056
0.11619702 -0.038498644 -0.03571205 0.022219263 -0.028274626 -0.030633118 -0.18093102 0.11104794
0.09585609 0.10028141 -0.048112966 0.18509308 0.09078783 -0.025094435 -0.007842676 -0.07215188
-0.03526096 -0.04479181 0.058250643 -0.037496317 -0.039350785 -0.042262867 0.02866581 -0.11880067
00000000: 86e7 b73c a653 1ebe e06b 3f3c 38c5 bd3c
00000010: 2796 65bd 496b 6ebc dcb4 333d 145b 183d
00000020: 61df acbc 926c bcbd 73d8 083e bb33 d2bd
00000030: 9343 53bd 30ed 2fbd b417 c63d 77de 4dbd
00000040: e000 bf3c 3a9f bfbc 790c a9bc a0c8 cf3c
00000050: 988b 903c 597b dbbc 5293 bebd 47a2 fc3d
00000060: 39af c33d e806 8e3d 99d8 b33c 5acc 5d3d
00000070: 729b a03d 75e1 5cbd 85d8 8a3d bb3d 743d
00000080: 4aef 083c 4eb4 c03c 0538 8dbc 3ed5 c03d
00000090: 5a32 973d b713 093d fa91 64bb 6a69 783d
000000a0: d4cb 10bd 8138 e13d ce46 913d 7c98 cf3c
000000b0: 940b b7bc 727f 033d 0b19 bc3c 3c63 8dbe
000000c0: dbab 7bbd 7dad 013d 94b1 30be 8224 233e
000000d0: 1c68 d3bd 17cc 26be f5e9 62bd 00f1 bf3d
000000e0: 9417 80be 76a9 5c3d d960 b3bd bdcf 98bd
000000f0: 54cf 3c3c 0d95 1f3d 1cd4 c6bd 26df aebc
00000100: 8d7c 1fbe 13a2 13bc ab9f 97bd 338f 03be
00000110: 7332 163e 10d2 503d 8a39 933c 4754 29bc
00000120: d155 a7bd 5280 43bc dbda a4bc f4e8 93bd
00000130: 83f4 393b 68ee d63c 7bea 1fbd 0f9b 8fbc
00000140: 05ad a53d 5218 083d 45cc 4cbd e1a2 cabd
00000150: 36e8 193d 5d9a c2bb e8a6 f4bc e2a7 97bd
00000160: b992 e5bc 6b53 0fbe 51ca d8bd 6e83 523d
00000170: b51d b2bc 7c4d 673d dba1 5abd 3eed 1b3d
00000180: 3de3 e5bc c140 b73d ef2c 84bc fa9f dc3d
00000190: de11 813d d04a e33c c037 59bd 1de2 3bbd
000001a0: 6dfd b03d 45e1 8f3c 1c89 bc3d 8d2f 743d
000001b0: 27fb 733d 7f7e 243d 20d6 c43d 3f15 603d
000001c0: bc78 13bd 1821 863c 1cc5 d63d 6a7a f3bd
000001d0: 3dcb 8c3d d4ab 563c a385 213e d4d3 b73c
000001e0: dc71 b53b 3cc0 a6bc 1bd8 83bd a904 d63c
000001f0: f9e5 84bb 0cea 4d3e 6065 a73d 20b4 9b3c
00000200: ab79 00bc f79c 99bb 0e3e 443c dcb7 0c3d
00000210: 65a1 913b 0a33 b33c a7ef 123e d175 163e
00000220: e471 1bbc ea11 143c 1ab3 c0bd 3f54 343d
00000230: 8384 c4bd 9a58 3b3d 883e bd3d b35d f33c
00000240: b7e0 133d 6729 c9bb a05a e53c 8d50 b5bc
00000250: db62 19bd 488a b43b d4b5 3e3e 1a82 eabb
00000260: 5b68 383b 767f ecbc c2bc c53d afb9 923b
00000270: 1def abbc 6677 26bd 5a8f 94bb faa6 1abd
00000280: 098f 473d 4fdc 0cbd 7f9e f63c 03dc 103d
00000290: 9076 0cbc 331c ed3c c291 92bd 5d75 debd
000002a0: bd62 6bbd 4b69 6f3d 99e1 033d 5baa c2bd
000002b0: cb86 88bd 8e37 4a3d 3ae1 92bd 18f9 813d
000002c0: b8e8 903d fa03 263d 87cc c3bc 6e44 da3d
000002d0: a923 a4bd 003a dd3c b4e5 383d b3d7 fabd
000002e0: 41b3 7a3d 17ec 50bc afd2 6a3d a8a9 82bc
000002f0: fd71 083c 007e 81bd 3ef1 233c 3062 763c
00000300: e3dd 87bc 7c2b 91bd a6be 41be 10ab c83b
00000310: 6608 f7ba 2feb d6bc 7692 6a3d 1851 ce3d
00000320: 66c9 f13c fa7f 5c3c d61b 3cbd d142 bf3c
00000330: 0539 693d b7ee 65bd 1d88 abbd 795c c0bd
00000340: b64a 2cbd c015 9abc 06c2 ecbb 802d a13d
00000350: 83a0 0fbd 3bce 3abd 84e9 e2bd 22c2 053d
00000360: 1938 e93c d1fe 8a3d 7d40 d93c 7410 2dbe
00000370: bb87 d5bc a031 c6bd 0341 c3bd 218d c3bd
00000380: adb3 7c3c 8807 3c3d 0f02 95bd d4da f4bd
00000390: d557 8ebc 07cd 5cbd be87 8cbd 7ac5 d5bd
000003a0: b4f8 ed3d c1b0 1dbd cc46 12bd 2c05 b63c
000003b0: 30a0 e7bc 4ef2 fabc fb45 39be 1a6d e33d
000003c0: 3350 c43d 5760 cd3d 1a12 45bd 0a89 3d3e
000003d0: f8ee b93d d892 cdbc 917e 00bc 5dc4 93bd
000003e0: cc6d 10bd 9e77 37bd 3a98 6e3d bd95 19bd
000003f0: 4a2e 21bd d41b 2dbd 90d4 ea3c c44d f3bd

decoder.decoder.0.0.bias f4 [32]
0.17355336 0.10357362 -0.037110113 -0.016233271 0.0295068 -0.048780557 0.063168906 0.039976884
-0.09419248 0.037951708 -0.007942938 -0.103614464 0.07499029 0.07169712 -0.100611515 0.08514483
0.107111014 0.030886838 0.04798671 0.007115391 0.08113142 0.04980014 0.024713019 -0.074996054
0.046735834 0.056543887 -0.0706812 -0.00711891 0.027244939 0.18151718 -0.06414625 -0.06143838
00000000: f9b7 313e 681e d43d c600 18bd a3fb 84bc
00000010: 3fb8 f13c 1fce 47bd b35e 813d cdbe 233d
00000020: fde7 c0bd 4073 1b3d 1923 02bc d233 d4bd
00000030: 8294 993d f1d5 923d 690d cebd 6a60 ae3d
00000040: 055d db3d 6506 fd3c b68d 443d 3a28 e93b
00000050: 3b28 a63d 3bfb 4b3d f572 ca3c 8897 99bd
00000060: 136e 3f3d 909a 673d 4ec1 90bd bf45 e9bb
00000070: c730 df3c a4df 393e 1c5f 83bd d0a6 7bbd

decoder.decoder.0.1.weight f4 [32]
1.0733572 0.8608945 1.0289254 1.0510314 1.0476465 1.0533094 0.83849657 1.0203604
0.81627154 0.96172965 1.0681208 0.95546985 1.0342696 0.9659794 0.87816226 1.031091
0.98669696 1.0468361 1.1441898 0.9654118 1.1233222 1.0504389 1.0242409 0.9787482
0.9770635 1.0428152 0.9677776 0.7458815 0.9166565 1.0324206 1.1184348 0.94711816
00000000: c563 893f 9563 5c3f d4b3 833f 3288 863f
00000010: 4819 863f d8d2 863f b6a7 563f 2b9b 823f
00000020: 2cf7 503f ea33 763f 2fb8 883f ac99 743f
00000030: f262 843f 6d4a 773f 3ecf 603f cafa 833f
00000040: 2c98 7c3f bafe 853f d074 923f 3a25 773f
00000050: 06c9 8f3f c874 863f 531a 833f 3e8f 7a3f
00000060: d520 7a3f f87a 853f 46c0 773f 17f2 3e3f
00000070: 00aa 6a3f 5c26 843f df28 8f3f 5676 723f

decoder.decoder.0.1.bias f4 [32]
0.19638145 -0.13487543 0.06483542 0.11901043 0.16349633 0.18227623 -0.16212504 0.12421242
-0.09345544 0.06847771 0.13518956 -0.02263068 0.082291864 -0.012255061 -0.09882504 0.09213249
0.044838656 0.20278446 0.10208284 -0.017680058 0.13277267 0.09031535 0.23373015 0.072831206
0.05706016 0.14038914 -0.0022072992 -0.003429122 -0.02872354 0.099138185 0.18627056 0.02798584
00000000: 3818 493e c91c 0abe 6fc8 843d bebb f33d
00000010: 956b 273e 9fa6 3a3e 1b04 26be 1563 fe3d
00000020: 9165 bfbd 0b3e 8c3d 226f 0a3e fa63 b9bc
00000030: a388 a83d 74c9 48bc c864 cabd f5af bc3d
00000040: bda8 373d bba6 4f3e cf10 d13d c5d5 90bc
00000050: 8ff5 073e 41f7 b83d f556 6f3e 8728 953d
00000060: eab7 693d 2cc2 0f3e 56a8 10bb 1fbb 60bb
00000070: a14d ebbc f608 cb3d b6bd 3e3e 8f42 e53c

decoder.decoder.0.1.running_mean f4 [32]
0.1721342 0.04276025 -0.21717966 -0.07942953 0.025687443 -0.14482163 0.13231388 0.082630895
-0.19032823 0.064819634 -0.08602389 -0.086903624 -0.0811 0.011564333 -0.07748047 -0.00097461144
0.06828685 -0.04466829 -0.03927689 -0.08248132 0.012858764 -0.04167975 -0.075281024 -0.049093485
0.10758666 0.044301186 -0.20090425 -0.07528327 -0.056050647 0.034299336 -0.114642896 -0.1175619
00000000: f343 303e 5f25 2f3d 5864 5ebe f3ab a2bd
00000010: 796e d23c 1f4c 14be 4a7d 073e 633a a93d
00000020: 67e5 42be 28c0 843d 4b2d b0bd 87fa b1bd
00000030: c217 a6bd 5478 3d3c 15ae 9ebd 117d 7fba
00000040: fad9 8b3d 19f6 36bd cee0 20bd f7eb a8bd
00000050: 91ad 523c 63b8 2abd f02c 9abd 4016 49bd
00000060: 6556 dc3d 2975 353d d8b9 4dbe 1d2e 9abd
00000070: 5d95 65bd 767d 0c3d e5c9 eabd 4bc4 f0bd

decoder.decoder.0.1.running_var f4 [32]
0.08775197 0.035658736 0.05610136 0.06670406 0.093392566 0.08717697 0.0136266295 0.05274852
0.033261146 0.046906084 0.049283553 0.03292421 0.08141432 0.03532794 0.031896736 0.05016216
0.054122675 0.06899383 0.07854211 0.034145612 0.09413032 0.06500127 0.073642835 0.037675366
0.033207808 0.05691589 0.07837772 0.024963537 0.058553718 0.063870266 0.08029552 0.054505102
00000000: 4eb7 b33d e50e 123d 8aca 653d 239c 883d
00000010: 9a44 bf3d d789 b23d 3a42 5f3c d50e 583d
00000020: d73c 083d 9820 403d 8ddd 493d 89db 063d
00000030: 8dbc a63d 08b4 103d 27a6 023d d676 4d3d
00000040: bdaf 5d3d a34c 8d3d b0da a03d 45dc 0b3d
00000050: 66c7 c03d 631f 853d 0ed2 963d 7c51 1a3d
00000060: e904 083d a320 693d 8084 a03d 5580 cc3c
00000070: 06d6 6f3d 6ace 823d fa71 a43d be40 5f3d

decoder.decoder.1.0.weight f4 [32, 16, 2, 2]
0.29888722 0.039311778 -0.08508627 0.05586648 -0.057520993 -0.03909988 -0.12415759 -0.0018034085
-0.12878987 -0.056087084 -0.061551962 0.20215681 0.10310064 0.096826725 -0.09277858 -0.033431776
-0.089651756 -0.06197258 0.13189916 -0.15962481 -0.038286977 0.014968347 0.33064818 -0.097311266
0.095249705 -0.030487685 0.037613615 0.044205662 0.16380312 -0.06900247 -0.11397527 0.055844624
0.10091184 0.24609569 -0.0021225298 0.29567894 -0.18211272 0.022141699 0.1708812 0.03765194
-0.03360295 0.01015155 0.14626062 -0.11560133 0.15283518 -0.089313135 -0.12163943 -0.21183178
0.16061676 0.06844444 -0.09625125 0.11844664 -0.038806662 0.13918097 0.07647009 -0.00047642135
-0.16097412 0.09043678 0.01595371 0.15496512 -0.09190511 -0.08315257 0.06038115 -0.25635248
-0.077048376 0.16059674 0.011286281 -0.035652082 -0.10795283 -0.113431156 -0.1166494 -0.042487726
0.06011445 -0.09186653 -0.035136063 -0.08768925 0.01532859 -0.051845483 0.011437835 -0.014312788
-0.033569027 -0.020710668 -0.009372295 -0.050978784 0.005770083 0.0544191 -0.14602047 -0.0432588
-0.075357586 -0.004357631 -0.04669123 -0.05233052 -0.079773 -0.13670333 -0.078196704 0.02499324
-0.14771678 -0.22873636 -0.07313063 -0.19294941 0.08456874 -0.07769735 -0.07664988 -0.15388484
0.09135976 0.019050235 0.16458645 0.08362987 -0.0061961818 -0.084940895 -0.050855447 -0.03204798
-0.120883875 0.07222668 -0.17945391 -0.15188763 -0.11619997 0.022350356 0.06275545 -0.29051238
-0.090370476 -0.18564352 -0.035892565 -0.16905017 0.03474601 0.042718004 -0.16018035 -0.0370531
0.11296201 0.104159646 0.052626107 0.14884718 0.022697417 -0.01940545 0.04687368 0.27123964
-0.072790556 0.13377585 -0.2838138 -0.16200827 -0.031370435 -0.123816915 -0.1319845 0.02799293
-0.18159318 -0.30494228 0.055752747 -0.10598515 -0.04303002 -0.011903323 -0.14021792 -0.05764219
0.0050017 -0.21154785 -0.114461355 -0.12474844 0.054708887 -0.16453645 -0.08452295 -0.19297943
-0.10302924 0.017541412 -0.09402061 -0.18590073 -0.06259126 -0.16411348 -0.08153916 -0.1395232
0.0039269337 -0.03866868 -0.18572605 -0.071241215 -0.12119798 0.110956594 -0.21105836 0.06820683
0.03513353 -0.085161865 -0.22980747 -0.04407469 -0.09205423 -0.004940887 -0.22104247 -0.13848382
-0.094206296 0.14306444 0.124893874 0.012072642 0.14536288 0.056090184 0.050442208 -0.081678286
-0.107973464 0.16528398 -0.10765912 -0.08897561 0.07987254 0.20147355 0.09518734 0.17294113
-0.18607326 -0.105648 -0.03069218 -0.010511634 0.13520451 -0.078069925 0.028749974 -0.018900786
-0.06864592 0.013071122 0.09971917 0.1030228 -0.009853149 0.07259768 0.10900696 -0.21813554
0.079008535 -0.1539995 -0.036793787 0.227201 0.017658355 -0.2175163 -0.025806608 -0.00594403
0.0037297723 -0.041637972 -0.24010418 -0.119674414 0.09049464 -0.11936271 0.105567455 0.061496403
-0.013234534 0.024691809 0.14842542 0.029487558 0.02659105 -0.13165177 -0.1592457 0.054258972
-0.041657213 -0.25797063 -0.2206922 -0.16316599 0.04356956 0.079667255 0.3303355 -0.078989595
-0.14821056 -0.1576896 -0.011428932 -0.158217 0.055254705 -0.07157081 0.15275048 -0.11871427
00000000: bf07 993e 6305 213d b641 aebd 40d4 643d
00000010: 229b 6bbd 3227 20bd 5646 febd 5960 ecba
00000020: 7ee1 03be 92bb 65bd e91d 7cbd 3202 4f3e
00000030: 6e26 d33d 174d c63d b202 bebd c2ef 08bd
00000040: 579b b7bd f6d6 7dbd 9310 073e b074 23be
00000050: ced2 1cbd cc3d 753c b84a a93e 214b c7bd
00000060: 4712 c33d 4fc1 f9bc bc10 1a3d ff10 353d
00000070: 01bc 273e 2b51 8dbd de6b e9bd 55bd 643d
00000080: deaa ce3d 8200 7c3e 241a 0bbb 3b63 973e
00000090: c27b 3abe 8262 b53c 7bfb 2e3e ec38 1a3d
000000a0: 3fa3 09bd b052 263c 58c5 153e 64c0 ecbd
000000b0: d380 1c3e cee9 b6bd 181e f9bd 6eea 58be
000000c0: b878 243e 992c 8c3d 601f c5bd 2794 f23d
000000d0: bcf3 1ebd 7585 0e3e 5a9c 9c3d 31c8 f9b9
000000e0: 66d6 24be eb36 b93d 5bb1 823c 2daf 1e3e
000000f0: bf38 bcbd e54b aabd 3a52 773d a240 83be
00000100: 8acb 9dbd 7973 243e 18ea 383c eb07 12bd
00000110: 6016 ddbd 984e e8bd e1e5 eebd 9c07 2ebd
00000120: 923a 763d 8524 bcbd d5ea 0fbd 6c96 b3bd
00000130: c424 7b3c ee5b 54bd c265 3b3c 2f80 6abc
00000140: ad7f 09bd 6ba9 a9bc 418e 19bc 21cf 50bd
00000150: f712 bd3b 90e6 5e3d 6486 15be 2430 31bd
00000160: 1455 9abd 75ca 8ebb 4e3f 3fbd 8758 56bd
00000170: 0760 a3bd f5fb 0bbe 9825 a0bd a0be cc3c
00000180: 1143 17be dd39 6abe 83c5 95bd 8894 45be
00000190: 6032 ad3d ca1f 9fbd 9dfa 9cbd fd93 1dbe
000001a0: d31a bb3d 3d0f 9c3c 5a89 283e 2346 ab3d
000001b0: 5709 cbbb 7ef5 adbd cd4d 50bd be44 03bd
000001c0: f791 f7bd 95eb 933d c4c2 37be 6e88 1bbe
000001d0: 40fa edbd 1818 b73c ee85 803d 0abe 94be
000001e0: 2814 b9bd 5619 3ebe 1504 13bd 7d1b 2dbe
000001f0: d551 0e3d 13f9 2e3d 5106 24be fec4 17bd
00000200: a058 e73d a751 d53d 798e 573d 656b 183e
00000210: efef b93c 2ef8 9ebc 9efe 3f3d ecdf 8a3e
00000220: 3713 95bd 89fc 083e 0b50 91be 7fe5 25be
00000230: 497e 00bd b993 fdbd f226 07be 6e51 e53c
00000240: 90f3 39be 6521 9cbe fe5c 643d be0e d9bd
00000250: 3f40 30bd 2806 43bc 4995 0fbe 381a 6cbd
00000260: 4de5 a33b 00a0 58be b76a eabd 1c7c ffbd
00000270: 6d16 603d 3e7c 28be 5e1a adbd 669c 45be
00000280: ff00 d3bd 02b3 8f3c e18d c0bd c35c 3ebe
00000290: d92f 80bd 5d0d 28be 01fe a6bd 2bdf 0ebe
000002a0: 82ad 803b 0d63 1ebd f82e 3ebe eae6 91bd
000002b0: a636 f8bd 363d e33d af1f 58be 06b0 8b3d
000002c0: 2de8 0f3d 5869 aebd a652 6bbe aa87 34bd
000002d0: ee86 bcbd 2ae7 a1bb f558 62be b4ce 0dbe
000002e0: 3bef c0bd 7c7f 123e 5cc8 ff3d 55cc 453c
000002f0: 02da 143e d2be 653d 7d9c 4e3d f246 a7bd
00000300: 3121 ddbd 3440 293e 627c dcbd d838 b6bd
00000310: 3794 a33d 154f 4e3e 95f1 c23d 7b17 313e
00000320: fd89 3ebe fb5d d8bd 2b6e fbbc fd38 2cbc
00000330: 0d73 0a3e 20e3 9fbd 1185 eb3c d2d5 9abc
00000340: 3b96 8cbd 4228 563c 9039 cc3d 9efd d23d
00000350: 1a6f 21bc 18ae 943d 0b3f df3d ec5e 5fbe
00000360: 3acf a13d 0cb2 1dbe 15b5 16bd 61a7 683e
00000370: 41a8 903c 98bc 5ebe 6168 d3bc 23c6 c2bb
00000380: 326f 743b 948c 2abd dfdd 75be dc17 f5bd
00000390: 4155 b93d 7074 f4bd c033 d83d a7e3 7b3d
000003a0: a9d5 58bc 7a46 ca3c d5fc 173e e48f f13c
000003b0: 79d5 d93c b9cf 06be 4e11 23be a83e 5e3d
000003c0: c1a0 2abd ba14 84be 23fd 61be fc14 27be
000003d0: ff75 323d 9628 a33d bc21 a93e 4cc5 a1bd
000003e0: 82c4 17be 6279 21be 6a40 3bbc a303 22be
000003f0: c252 623d b893 92bd 9f6a 1c3e 7820 f3bd

decoder.decoder.1.0.bias f4 [16]
0.07504498 0.10020831 -0.06580439 0.031300347 0.0661658 -0.062494446 0.032729372 0.09906727
0.111635074 -0.108694956 -0.13002926 0.08101514 0.07029468 0.13235019 -0.08645626 -0.046826337
00000000: 2fb1 993d 043a cd3d 74c4 86bd cb34 003d
00000010: ef81 873d 2dfa 7fbd 3c0f 063d c8e3 ca3d
00000020: eea0 e43d 769b debd 6426 05be 44eb a53d
00000030: a8f6 8f3d cf86 073e fb0f b1bd f9cc 3fbd

decoder.decoder.1.1.weight f4 [16]
1.0058991 0.9337343 0.956747 1.105253 1.0185442 1.0746813 1.0071787 1.1331326
1.0627359 1.110678 0.89413184 0.8846739 0.98697203 1.0328298 0.9275605 0.89762217
00000000: 4dc1 803f 3609 6f3f 5fed 743f ee78 8d3f
00000010: a85f 823f 288f 893f 3beb 803f 7d0a 913f
00000020: bb07 883f b22a 8e3f d3e5 643f fd79 623f
00000030: 33aa 7c3f c433 843f 9b74 6d3f 91ca 653f

decoder.decoder.1.1.bias f4 [16]
-0.011407475 -0.020405011 0.058897287 0.07335774 0.05680911 0.07634883 0.045628782 0.091607116
0.0787129 0.035246763 -0.10139114 -0.038964886 0.015614881 0.14215256 0.022327371 -0.00083363947
00000000: 6be6 3abc 6928 a7bc 483e 713d 953c 963d
00000010: abb0 683d c65c 9c3d 3fe5 3a3d 839c bb3d
00000020: 3b34 a13d e95e 103d 28a6 cfbd a599 1fbd
00000030: 8fd5 7f3c 7190 113e e4e7 b63c 9988 5aba

decoder.decoder.1.1.running_mean f4 [16]
0.5401588 -0.042739414 -0.41647893 0.07145821 -0.5868604 -0.35485718 0.427815 -0.16892225
0.12059313 -0.056118377 -0.12829599 -0.13221928 -0.61801064 -0.11877436 -0.34489012 -0.09487876
00000000: d947 0a3f 860f 2fbd ba3c d5be af58 923d
00000010: 7c3c 16bf d7af b5be 910a db3e f4f9 2cbe
00000020: 88f9 f63d 62dc 65bd 0660 03be 7e64 07be
00000030: f235 1ebf f93f f3bd 7095 b0be cc4f c2bd

decoder.decoder.1.1.running_var f4 [16]
0.48089206 0.63170165 0.6204755 0.55426794 0.8190069 0.71169466 0.34048373 0.9976269
0.7806066 0.7501296 0.4375285 0.9990626 1.0955476 1.079234 1.0385703 0.7735847
00000000: 7c37 f63e 33b7 213f 7bd7 1e3f 81e4 0d3f
00000010: 70aa 513f 9f31 363f e253 ae3e 7a64 7f3f
00000020: d6d5 473f 7e08 403f bc03 e03e 91c2 7f3f
00000030: e73a 8c3f 5724 8a3f dfef 843f a609 463f
